…
  warnings.warn("Pattern library is not installed, lemmatization won't be available.")
/work/jobs/16098178.d/resources/conll16st-en-zh-dev-train-test_LDC2016E50/conll16st-en-03-29-16-dev//relations.json /work/jobs/16098178.d/resources/conll16st-en-zh-dev-train-test_LDC2016E50/conll16st-en-03-29-16-dev//parses.json ((756, 120), (756, 120), (756, 20), (756, 20))
the lens of vocab and pos_vocab:  35397 45
--------------------------------------------------------------------------------
Layer (name)                  Output Shape                  Param #             
--------------------------------------------------------------------------------
Layer (arg1)                  (None, 120)                   0                   
Layer (arg2)                  (None, 120)                   0                   
Layer (pos1)                  (None, 120)                   0                   
Layer (pos2)                  (None, 120)                   0                   
Embedding (embedding1)        (None, 120, 300)              10619400            
Embedding (embedding2)        (None, 120, 300)              10619400            
Embedding (embedding3)        (None, 120, 100)              4600                
Embedding (embedding4)        (None, 120, 100)              4600                
Dropout (arg_1)               (None, 120, 400)              0                   
Dropout (arg_2)               (None, 120, 400)              0                   
Siamese (cnn1)                (None, 120, 2048)             1229824             
Siamese (cnn2)                (None, 120, 2048)             1229824             
Siamese (cnn3)                (None, 120, 2048)             1229824             
MaxPooling1D (mpooling1)      (None, 1, 2048)               0                   
MaxPooling1D (mpooling2)      (None, 1, 2048)               0                   
MaxPooling1D (mpooling3)      (None, 1, 2048)               0                   
Flatten (f1)                  (None, 2048)                  0                   
Flatten (f2)                  (None, 2048)                  0                   
Flatten (f3)                  (None, 2048)                  0                   
Dense (final)                 (None, 20)                    122900              
Activation (lastDim)          (None, 20)                    0                   
Activation (output)           (None, 20)                    0                   
--------------------------------------------------------------------------------
Total params: 25060372
--------------------------------------------------------------------------------

Currently Loaded Modulefiles:
  1) intel/2017.0

Job script resource usage:
       JobID  MaxVMSize     MaxRSS 
------------ ---------- ---------- 
16098178.ba+   6945204K   6340751K 

Job step resource usage:
…
